standard_training/checkpoints/srcnn/srcnn-20250515_151439/best_model.pth (torch, 178786 bytes, 18 tensors)

conv1.weight f4 [64, 2, 9, 9]
0	0xbb189ba9	-0.002328614
1	0xbb229668	-0.0024808887
2	0xbb18bf54	-0.00233074
3	0xba9d00ee	-0.0011978426
4	0x3a762077	0.0009388993
5	0xba9385d7	-0.0011255097
6	0xbb0aa083	-0.0021152801
7	0xbb154605	-0.002277733
8	0xbb038260	-0.0020066723
9	0xbab10b79	-0.0013507447
10	0xbac76f2e	-0.0015215629
11	0xbab82c55	-0.0014051298
12	0xb9224111	-0.00015473763
13	0x3b1e932b	0.0024196606
14	0x381f6f48	3.8012193e-05
15	0xba888abf	-0.0010417326
16	0xba9f3cee	-0.0012148896
17	0xba77af86	-0.0009448457
18	0xb96b2577	-0.00022425303
19	0xb9d76c8b	-0.00041088866
20	0xb9aa22ca	-0.00032450847
21	0x3a82c1a8	0.0009975927
22	0x3b7df967	0.0038753392
23	0x3a978e52	0.00115628
24	0xb81fa1bb	-3.8059177e-05
25	0xb96d506b	-0.0002263204
26	0x382de387	4.1458316e-05
27	0x3a6100bc	0.0008583178
28	0x3a2cc82e	0.00065911084
29	0x3a3d463b	0.0007220243
30	0x3b0b2489	0.0021231493
31	0x3badf73b	0.005309013
32	0x3b1387c7	0.002251135
33	0x3a75ee11	0.0009381483
34	0x3a400b91	0.0007325942
35	0x3a82cb0b	0.0009978724
36	0x3adf31d9	0.0017028406
37	0x3ac3d7d0	0.0014941636
38	0x3ac9e737	0.001540399
39	0x3b4616fc	0.0030226102
40	0x3bd512fc	0.0065025073
41	0x3b4cf838	0.003127588
42	0x3adee0d0	0.0017004255
43	0x3ac1a26a	0.0014773135
44	0x3ae42ee3	0.0017408993
45	0xba8bd75d	-0.0010669042
46	0xbacb5aa9	-0.001551469
47	0xbb0eef63	-0.0021810166
48	0xbad55ef1	-0.0016278905
49	0x3a4482f1	0.00074963184
50	0xbac93e30	-0.0015353616
51	0xbb094955	-0.002094825
52	0xbadb96fc	-0.0016753371
53	0xba937745	-0.0011250755
54	0xbaf55565	-0.0018717466
55	0xbb201bad	-0.0024430559
56	0xbb613602	-0.0034364467
57	0xbb651f10	-0.0034961142
58	0xbb02f83e	-0.001998439
59	0xbb5f7e95	-0.0034102548
60	0xbb612030	-0.003435146
61	0xbb31e3f8	-0.0027143937
62	0xbb097502	-0.0020974283
63	0xbaed309c	-0.0018096152
64	0xbb1b95be	-0.0023740376
65	0xbb6733af	-0.0035278609
66	0xbb80e225	-0.0039332085
67	0xbb48ae32	-0.0030621407
68	0xbb7bc9d9	-0.003841987
69	0xbb6c5a31	-0.00360645
70	0xbb37ea3f	-0.0028063206
71	0xbb13308a	-0.0022459351
72	0xbad0ad4f	-0.0015920791
73	0xbb06c66e	-0.002056505
74	0xbb4e486d	-0.0031476275
75	0xbb69d96c	-0.0035682572
76	0xbb3c94d3	-0.002877523
77	0xbb6377a8	-0.0034708772
78	0xbb578b43	-0.0032889403
79	0xbb2c5adc	-0.0026299274
80	0xbb11fa26	-0.0022274344
81	0x3b1594de	0.0022824327
82	0x3b066e5e	0.0020512561
83	0x3b0cdefa	0.002149521
84	0x3b80da1a	0.0039322497
85	0x3c069631	0.008214519
86	0x3b7ed345	0.003888325
87	0x3b036400	0.0020048618
88	0x3ad4c9e7	0.0016234488
89	0x3af4dd97	0.0018681762
90	0x3b279e02	0.0025576358
91	0x3b1822ce	0.0023214105
92	0x3b1f5555	0.0024312336
93	0x3b8d2473	0.0043073236
94	0x3c10efc5	0.008846228
95	0x3b915190	0.004434772
96	0x3b254fdb	0.00252246
97	0x3b0b4c81	0.0021255317
98	0x3b1b37d2	0.0023684395
99	0x3b2b6a83	0.0026156015
100	0x3b1c964f	0.0023893302
101	0x3b256754	0.002523859
102	0x3b90e881	0.004422248
103	0x3c1330e6	0.008983826
104	0x3b956a29	0.0045597744
105	0x3b2c696a	0.002630795
106	0x3b11983d	0.0022215985
107	0x3b215d9d	0.0024622448
108	0x3b1ecc5d	0.0024230697
109	0x3b11289e	0.0022149454
110	0x3b1c0259	0.002380511
111	0x3b8c52cb	0.0042823306
112	0x3c100a2c	0.008791488
113	0x3b911ae8	0.0044282563
114	0x3b24551d	0.0025075146
115	0x3b08e322	0.0020887335
116	0x3b18776f	0.0023264547
117	0x3b01842b	0.0019762616
118	0x3aeaf0cc	0.0017924546
119	0x3b02a464	0.001993441
120	0x3b7e3731	0.003879022
121	0x3c07628e	0.008263243
122	0x3b843d4c	0.0040356275
123	0x3b0ccbc8	0.0021483768
124	0x3ae1bca1	0.0017222353
125	0x3b00293a	0.0019555823
126	0xbb01b8d3	-0.0019794002
127	0xbb1ef956	-0.0024257503
128	0xbb3da7fd	-0.002893924
129	0xbb09b355	-0.0021011431
130	0x3a2f3c8d	0.0006684743
131	0xbafa7ef1	-0.0019111318
132	0xbb31f8d4	-0.002715637
133	0xbb20b466	-0.0024521588
134	0xbafc1958	-0.0019233627
135	0xbb42fb96	-0.0029752008
136	0xbb633b85	-0.0034672928
137	0xbb8b776e	-0.0042561805
138	0xbb89a076	-0.0042000366
139	0xbb367b4a	-0.0027844482
140	0xbb821768	-0.0039700754
141	0xbb85325e	-0.004064842
142	0xbb64df01	-0.003492296
143	0xbb3f43c9	-0.002918469
144	0xbb2b50bc	-0.002614065
145	0xbb47e1e5	-0.0030499634
146	0xbb81178b	-0.003939574
147	0xbb8d9da8	-0.0043217726
148	0xbb816d9a	-0.003949833
149	0xbb8464b4	-0.004040325
150	0xbb749ad9	-0.0037323742
151	0xbb4aa5a1	-0.0030921476
152	0xbb2ad45a	-0.0026066513
153	0xbb2e8c59	-0.0026633947
154	0xbb429b51	-0.0029694627
155	0xbb75b3b5	-0.0037491147
156	0xbb8a8dc0	-0.0042283237
157	0xbb8fe1b1	-0.004390918
158	0xbb80192e	-0.0039092517
159	0xbb67a75a	-0.0035347552
160	0xbb475b8c	-0.0030419556
161	0xbb32f2f7	-0.0027305463
162	0x00008a69	4.9652e-41
163	0x00008c74	5.0385e-41
164	0x8000898d	-4.9344e-41
165	0x000088c2	4.906e-41
166	0x8000891a	-4.9183e-41
167	0x80008b36	-4.994e-41
168	0x80008c79	-5.0392e-41
169	0x80008a17	-4.9537e-41
170	0x80008b5c	-4.9993e-41
171	0x800089b7	-4.9403e-41
172	0x8000894d	-4.9254e-41
173	0x00008b40	4.9953e-41
174	0x00008a26	4.9558e-41
175	0x000088d2	4.9082e-41
176	0x0000894c	4.9253e-41
177	0x00008b69	5.0011e-41
178	0x000089ed	4.9478e-41
179	0x000088ef	4.9123e-41
180	0x80008ab7	-4.9762e-41
181	0x800089c3	-4.942e-41
182	0x000088ff	4.9145e-41
183	0x80008b91	-5.0067e-41
184	0x00008aed	4.9837e-41
185	0x00008bcd	5.0151e-41
186	0x000088e8	4.9113e-41
187	0x00008a26	4.9558e-41
188	0x00008aae	4.9749e-41
189	0x00008c5e	5.0354e-41
190	0x00008a22	4.9553e-41
191	0x80008c16	-5.0253e-41
192	0x80008ab7	-4.9762e-41
193	0x00008b2c	4.9925e-41
194	0x00008b97	5.0075e-41
195	0x00008942	4.9239e-41
196	0x00008bc1	5.0134e-41
197	0x00008a72	4.9665e-41
198	0x000089ac	4.9387e-41
199	0x8000abd3	-6.1639e-41
200	0x80008953	-4.9263e-41
201	0x80008b5e	-4.9996e-41
202	0x000089be	4.9413e-41
203	0x00008935	4.922e-41
204	0x00008a29	4.9563e-41
205	0x00008a6c	4.9656e-41
206	0x000089ec	4.9477e-41
207	0x00008c11	5.0246e-41
208	0x00008ba2	5.0091e-41
209	0x00008af4	4.9847e-41
210	0x00008962	4.9284e-41
211	0x80008b1e	-4.9906e-41
212	0x80008ada	-4.981e-41
213	0x80008960	-4.9281e-41
214	0x800088d2	-4.9082e-41
215	0x80008a0b	-4.952e-41
216	0x80008965	-4.9288e-41
217	0x80008bbf	-5.0131e-41
218	0x80008b9e	-5.0085e-41
219	0x00008c7d	5.0398e-41
220	0x00008956	4.9267e-41
221	0x800088bf	-4.9055e-41
222	0x800097c0	-5.4438e-41
223	0x00008b66	5.0007e-41
224	0x00008a83	4.9689e-41
225	0x00008964	4.9286e-41
226	0x000089e9	4.9473e-41
227	0x8000add6	-6.236e-41
228	0x80008981	-4.9327e-41
229	0x000089f6	4.9491e-41
230	0x000088ce	4.9076e-41
231	0x000088fd	4.9142e-41
232	0x00008b43	4.9958e-41
233	0x00008987	4.9336e-41
234	0x80008b9d	-5.0084e-41
235	0x00008936	4.9222e-41
236	0x00008a6d	4.9658e-41
237	0x000088f1	4.9125e-41
238	0x80008a3d	-4.959e-41
239	0x80008b92	-5.0068e-41
240	0x80008add	-4.9815e-41
241	0x80008abf	-4.9773e-41
242	0x800088ff	-4.9145e-41
243	0x00008c62	5.036e-41
244	0x8000a19c	-5.7975e-41
245	0x80008cc5	-5.0499e-41
246	0x80008a90	-4.9707e-41
247	0x80008bff	-5.0221e-41
248	0x800089a9	-4.9383e-41
249	0x80008aa1	-4.973e-41
250	0x80008a91	-4.9708e-41
251	0x8000895a	-4.9272e-41
252	0x800089ad	-4.9389e-41
253	0x80008b1b	-4.9902e-41
254	0x00008a0c	4.9522e-41
255	0x00008ad7	4.9806e-41

conv1.bias f4 [64]
0	0x3acafefe	0.001548737
1	0x8000891b	-4.9184e-41
2	0xbab94b10	-0.001413675
3	0xbb51ac8c	-0.0031993715
4	0xbbfae6d5	-0.007656912
5	0x3cc9a90e	0.024616744
6	0x3a9ccfec	0.0011963821
7	0x3c77e28e	0.015129698
8	0x3ab746e4	0.0013982919
9	0xbc6c26b8	-0.014413528
10	0xbbc2bda6	-0.005943018
11	0x3c77fdd0	0.015136197
12	0x000089b0	4.9393e-41
13	0x0000acde	6.2013e-41
14	0x800089c7	-4.9425e-41
15	0xbbb7c186	-0.0056077866
16	0x3bcd579d	0.006266548
17	0x3c8c20e8	0.017105535
18	0x3bc49e98	0.006000351
19	0x3c379634	0.011205245
20	0xbc23b3a1	-0.009991557
21	0x3af397e0	0.0018584691
22	0x80008bab	-5.0103e-41
23	0x3bbffa7b	0.005858717
24	0x00008939	4.9226e-41
25	0x000089e1	4.9462e-41
26	0x3bf41865	0.007449197
27	0xbbcee169	-0.006313492
28	0x3b289bed	0.0025727705
29	0xbb18a31e	-0.0023290585
30	0x3c06ce61	0.0082279155
31	0x3bd01d74	0.0063511673
32	0x3c354f47	0.0110662645
33	0x3b966f2f	0.004590891
34	0x3c1a2823	0.009408983
35	0x3bbf4f4c	0.0058383103
36	0x3babc8b3	0.005242431
37	0x3c2b3bf9	0.01045131
38	0x3c11ed33	0.00890665
39	0x3bc6749c	0.0060563814
40	0x3c250a44	0.010073248
41	0x3ce043c9	0.027376072
42	0x3b0ae59b	0.0021193984
43	0x3c302056	0.010749897
44	0x3c2cc921	0.010546
45	0x3b848db4	0.0040452126
46	0x3cf66fb9	0.03008257
47	0xbbdb17b0	-0.0066861734
48	0x3c9d9f9a	0.019241143
49	0x000088ca	4.907e-41
50	0x800088fe	-4.9144e-41
51	0x3adb2b40	0.0016721264
52	0x3cb893ea	0.022531468
53	0x3be4017d	0.006958185
54	0x3b428292	0.0029679877
55	0x3c76a9b5	0.01505511
56	0x3aa92a6b	0.0012906318
57	0xbcbc4edc	-0.022986822
58	0x00008944	4.9242e-41
59	0x3c52448d	0.012833727
60	0xbb9f627c	-0.004864035
61	0x00008a06	4.9513e-41
62	0x3bd78407	0.006577018
63	0x3c5fc9d3	0.0136589585

conv2.weight f4 [32, 64, 1, 1]
0	0x3c071f4b	0.008247207
1	0x00008dba	5.0842e-41
2	0x3b217358	0.00246354
3	0x3c5b09dc	0.01336905
4	0x3cd13859	0.025539564
5	0x3a246e4e	0.000627254
6	0x3b80e1df	0.003933176
7	0x3cba1301	0.02271414
8	0xba8c46ba	-0.001070223
9	0x3c9b5f44	0.018966325
10	0x3c98f2d6	0.01867048
11	0x3ae3722e	0.0017352754
12	0x8000894e	-4.9256e-41
13	0x80008d8f	-5.0782e-41
14	0x00008921	4.9193e-41
15	0x3c934eec	0.017981969
16	0x3c2b6a77	0.010462395
17	0x3cdd0f54	0.026984848
18	0x3c946d08	0.018118396
19	0x3c410798	0.011781596
20	0x3cf2e437	0.029649837
21	0x3ac598f2	0.0015075488
22	0x00008993	4.9352e-41
23	0x3bb9440a	0.005653863
24	0x00008d6b	5.0731e-41
25	0x80008983	-4.933e-41
26	0x3cbed8c0	0.023296714
27	0x3c905c91	0.017622264
28	0x3c603320	0.013684064
29	0x3baa6629	0.0052001667
30	0x3cb23cea	0.021757562
31	0x3cafe80a	0.02147295
32	0x39e6a5b2	0.0004399247
33	0x3c133c7b	0.008986588
34	0xbbfc4394	-0.0076984856
35	0x3c61e24d	0.0137868645
36	0x3c20cee2	0.00981495
37	0x3c740e07	0.0148959225
38	0x3cc5a0cd	0.024124527
39	0x3c508882	0.0127278585
40	0xbad762ed	-0.001643268
41	0x3cc72d8e	0.024313714
42	0x3c38fb30	0.0112903565
43	0xbb6c31a3	-0.0036040328
44	0x3bd111be	0.006380289
45	0xbb22ea27	-0.0024858804
46	0xbbac6edb	-0.0052622384
47	0x3c80e324	0.01573331
48	0x3ca97cb2	0.020689342
49	0x800088bc	-4.9051e-41
50	0x00008a1b	4.9543e-41
51	0x3c5493ed	0.012974721
52	0xbc29d08a	-0.010364661
53	0x3cb62563	0.022234624
54	0x3c14d6da	0.009084428
55	0xbbea6f30	-0.007154368
56	0x3a881be0	0.0010384284
57	0x3d45fc78	0.048336476
58	0x80008961	-4.9282e-41
59	0x3cb6d2ec	0.022317372
60	0x3c00a21f	0.007851153
61	0x00008c14	5.025e-41
62	0x3a3e2fdb	0.0007255056
63	0x3c48b975	0.012251248
64	0xb9d43a5d	-0.00040479275
65	0x800095e5	-5.3772e-41
66	0x3b1d6272	0.0024014977
67	0xba992036	-0.0011682573
68	0x3c237fc0	0.009979188
69	0x3bb1765b	0.0054157204
70	0xb924fa96	-0.0001573361
71	0x3a241596	0.000625932
72	0x3a1fd66a	0.0006097319
73	0x3c3c1023	0.011478457
74	0x3bb2f1a6	0.0054609356
75	0x3c0f8da6	0.008761799
76	0x80008a09	-4.9518e-41
77	0x00009bf0	5.594e-41
78	0x80008eba	-5.12e-41
79	0x3bcd899b	0.0062725074
80	0x389041c3	6.878704e-05
81	0x392944c7	0.00016142718
82	0x3c1d04d8	0.009583674
83	0x3bd7ac3a	0.0065818103
84	0x3c1cfaf2	0.009581314
85	0x3a626499	0.0008636206
86	0x80009084	-5.1842e-41
87	0x3a7f994e	0.0009750322
88	0x80008a6a	-4.9654e-41
89	0x80008948	-4.9247e-41
90	0x3be22594	0.0069014523
91	0x3c29c1fb	0.01036119
92	0xba326f7b	-0.0006806773
93	0x3a0cf612	0.00053772435
94	0xba6f5969	-0.00091304496
95	0x3b8ff2a4	0.0043929387
96	0x3b226564	0.0024779672
97	0x3af836b0	0.0018937197
98	0x3a944e10	0.0011314768
99	0xbb5179eb	-0.0031963538
100	0xbb9ff336	-0.004881288
101	0x3bba29f3	0.0056812703
102	0xba8339d8	-0.0010011746
103	0x3ac21698	0.0014807759
104	0xbb6e7b3a	-0.0036389367
105	0x3b980ca5	0.004640179
106	0x3a8e43c8	0.0010853941
107	0xbb62b28c	-0.0034591286
108	0xbb765ab2	-0.003759068
109	0x3baec8ea	0.0053340094
110	0xbbb43d82	-0.0055004964
111	0x3bc00454	0.005859891
112	0x3c3a56a4	0.011373196
113	0x800089cf	-4.9436e-41
114	0x80008f28	-5.1355e-41
115	0x3bf59b45	0.007495316
116	0xbbe09724	-0.006853955
117	0x3c657b6f	0.01400648
118	0x3b3c5459	0.0028736799
119	0x3b01b924	0.001979419
120	0xba19a303	-0.00058607775
121	0x3c470421	0.0121469805
122	0x800088e1	-4.9103e-41
123	0xba138679	-0.0005627643
124	0xbaff9e70	-0.0019502174
125	0x80008a18	-4.9539e-41
126	0xbb32e23e	-0.0027295495
127	0x3b18b6ee	0.0023302394
128	0x3b7e7dc2	0.0038832282
129	0x80008e63	-5.1079e-41
130	0x3adf6981	0.0017044992
131	0x3bcd3f9a	0.0062636854
132	0x3c48bf44	0.0122526325
133	0x3ac8ac23	0.001531009
134	0x3aefa615	0.0018283749
135	0x3c772fbe	0.015087066
136	0xb884e56d	-6.3369844e-05
137	0x3bdf81cb	0.0068208924
138	0x3bcef020	0.006315246
139	0x3b1d221f	0.0023976637
140	0x8000890c	-4.9163e-41
141	0x80009281	-5.2556e-41
142	0x00009155	5.2135e-41
143	0x3bd9cc59	0.0066466746
144	0x3bffc322	0.007805244
145	0x3c82852d	0.015932644
146	0x3bf8059b	0.0075690276
147	0x3c11ddae	0.00890295
148	0x3c735496	0.01485171
149	0x3b005f9a	0.0019588233
150	0x80008a91	-4.9708e-41
151	0x3b027d8a	0.0019911253
152	0x00008963	4.9285e-41
153	0x80008a72	-4.9665e-41
154	0x3c134bdf	0.008990257
155	0x3bd37425	0.0064530545
156	0x3bd35faa	0.006450613
157	0x3b612cd6	0.0034359
158	0x3c23a585	0.009988193
159	0x3c519af4	0.012793291
160	0x3a3fe21b	0.0007319764
161	0x3bc1d4f9	0.005915281
162	0x3bc28ac7	0.0059369537
163	0x3bd99a8a	0.006640737
164	0x3bd81376	0.006594117
165	0x3bc13bde	0.0058970293
166	0x3c3f403f	0.011673032
167	0x3bc9fb77	0.00616401
168	0x3a7d87b4	0.00096714054
169	0x3c0c5d51	0.00856717
170	0x3bc7bfab	0.0060958466
171	0x396ece27	0.00022774246
172	0x3bbc22d9	0.005741459
173	0x3ab05560	0.0013453178
174	0x3a2b7caa	0.0006541709
175	0x3bf75be5	0.0075487965
176	0x3c408db4	0.011752535
177	0x00008942	4.9239e-41
178	0x00008e05	5.0947e-41
179	0x3c040060	0.00805673
180	0xba4aec48	-0.0007740897
181	0x3bd9736b	0.0066360733
182	0x3bc83c9a	0.00611074
183	0xba9065bb	-0.0011016646
184	0x3a9de299	0.0012045681
185	0x3c85b3d9	0.01632111
186	0x000088fb	4.914e-41
187	0x3c2274a2	0.009915503
188	0x3b860da1	0.00409098
189	0x800088bb	-4.905e-41
190	0x3b3632ba	0.0027801231
191	0x3b8d7016	0.00431634
192	0x3b93d8b1	0.0045119156
193	0x00009262	5.2512e-41
194	0x39ba3760	0.00035517942
195	0x3c1c0789	0.009523281
196	0x3c29417d	0.010330555
197	0xbc1dc753	-0.009630042
198	0x3b2d8ea5	0.0026482728
199	0x3ca3a121	0.019974293
200	0xba9c6303	-0.0011931363
201	0xb9f087c9	-0.00045877535
202	0x3bb9bfe1	0.0056686257
203	0xbc6b16a8	-0.014348663
204	0x0000898a	4.934e-41
205	0x00008e38	5.1018e-41
206	0x00008b00	4.9864e-41
207	0x3c14dc14	0.009085674
208	0x3c7e70d9	0.015529835
209	0x3cb26951	0.021778734
210	0x3bee42c1	0.0072711413
211	0x3c306e56	0.010768494
212	0x3c91e695	0.017810145
213	0x3a11840d	0.0005550988
214	0x80008c0d	-5.0241e-41
215	0x3b676198	0.0035305973
216	0x00008abe	4.9771e-41
217	0x00009de3	5.6639e-41
218	0x3c34db19	0.011038565
219	0x3a3c04c9	0.0007172344
220	0x3bf60a12	0.0075085247
221	0x3b52267e	0.00320664
222	0x3c2c8dd6	0.010531863
223	0x3c8d8bc0	0.017278552
224	0xbb8de0be	-0.00432977
225	0x3c1a49b8	0.00941699
226	0x3c8dbf1c	0.017303042
227	0x3ca01657	0.019541902
228	0x3cbb2ab3	0.022847509
229	0x3c05dd80	0.0081704855
230	0x3c4b3a91	0.0124041
231	0x3c58285b	0.013193215
232	0x3c4c7280	0.012478471
233	0x3c77fdaa	0.015136162
234	0x3c218ea6	0.00986067
235	0x3c2b74a1	0.010464818
236	0x3cb68198	0.022278592
237	0xbbdcc8b9	-0.006737795
238	0x3c9ae16b	0.018906316
239	0x3be3b37d	0.006948887
240	0x3c50246d	0.012703997
241	0x000088c1	4.9058e-41
242	0x00008a75	4.9669e-41
243	0x3bd8ff97	0.0066222656
244	0x3c943914	0.018093623
245	0xbb940ca3	-0.004518108
246	0x3bf18729	0.0073708487
247	0xbbf1e11e	-0.0073815724
248	0x3b83da64	0.004023837
249	0x3ca05d75	0.019575814
250	0x00008952	4.9261e-41
251	0x3c6f03a0	0.014588267
252	0x3c0bb395	0.008526702
253	0x80008a9a	-4.9721e-41
254	0x3c688cb9	0.014193707
255	0x3bf956f7	0.007609244

conv2.bias f4 [32]
0	0xbd0f7e85	-0.035032768
1	0xbc81fec8	-0.01586856
2	0x3ca8fb57	0.02062766
3	0x3d93c943	0.07216122
4	0x000088f4	4.913e-41
5	0x3da9e016	0.08294694
6	0x3d2b39af	0.04180306
7	0x3cd2bcde	0.025724825
8	0x3d40866a	0.047003187
9	0x3d921a2b	0.071338974
10	0x000088ce	4.9076e-41
11	0x3db9520b	0.090488516
12	0x3d9fb773	0.07798662
13	0xbd6e85d9	-0.058233116
14	0x3d8e9d9b	0.069636546
15	0x3e03956e	0.12849972
16	0x00008a00	4.9505e-41
17	0x3cb8901a	0.02252965
18	0x000089da	4.9452e-41
19	0x3d618ca9	0.055065785
20	0xbcb2710b	-0.021782419
21	0xbb25c754	-0.002529581
22	0xbb85d463	-0.0040841564
23	0x80008908	-4.9158e-41
24	0x3bc4a1dd	0.006000741
25	0xbc0dea68	-0.008661844
26	0x00009f6d	5.7191e-41
27	0x3dc3d3ad	0.09561858
28	0xbba9d5b0	-0.0051829442
29	0xbd0920e4	-0.033478633
30	0x3dbd4a2d	0.092426635
31	0x8000893d	-4.9232e-41

conv3.weight f4 [2, 32, 5, 5]
0	0x3c930afe	0.017949577
1	0x3c99f58d	0.018793846
2	0x3d00991e	0.031396024
3	0x3c7eebdb	0.015559162
4	0x3c6f7aaf	0.014616652
5	0x3c6f165f	0.014592736
6	0x3c7d0e0e	0.015445245
7	0x3ce538ee	0.027981248
8	0x3c470394	0.012146849
9	0x3c378b30	0.0112026185
10	0x3c94cac6	0.018163096
11	0x3ca3472a	0.019931395
12	0x3d081d5f	0.033231135
13	0x3c87c534	0.016573526
14	0x3c72d7ed	0.0148219885
15	0x3b974db1	0.004617416
16	0x3b92da39	0.0044815806
17	0x3c503647	0.012708253
18	0x3ad499d2	0.0016220158
19	0x3b02ddc6	0.0019968613
20	0x3b08e371	0.0020887519
21	0x3ab7f884	0.0014035855
22	0x3bd57f55	0.0065154233
23	0xba61aa21	-0.000860842
24	0x38984115	7.260047e-05
25	0x3a2a7cbe	0.00065035734
26	0x3a83e15f	0.0010061673
27	0x3b0310d2	0.001999904
28	0xb63fb373	-2.856567e-06
29	0xb926311f	-0.00015849293
30	0xba08b0bd	-0.00052143243
31	0xb9d2bda5	-0.00040195617
32	0xb90e6ff9	-0.00013583888
33	0xba9d5554	-0.0012003579
34	0xba8fa27e	-0.0010958461
35	0xb9303579	-0.00016804588
36	0x38195804	3.6560014e-05
37	0x38614975	5.3712592e-05
38	0xba158e14	-0.000570507
39	0xba043091	-0.00050426373
40	0xbb2ddd0a	-0.0026529455
41	0xbb1fad65	-0.0024364826
42	0xbb4c3808	-0.0031161327
43	0xbb3a7d8f	-0.0028456186
44	0xbb34e5fa	-0.0027602897
45	0xbb8b86f7	-0.0042580324
46	0xbb86bdd3	-0.0041119843
47	0xbbb37cbb	-0.0054775155
48	0xbb8dd967	-0.004328895
49	0xbb87cd2c	-0.0041443314
50	0x3a4a578f	0.0007718736
51	0xba46b924	-0.00075806887
52	0x3c3dfe77	0.011596314
53	0x3ad3e0a1	0.0016164967
54	0x3b2a450a	0.0025981092
55	0xba81ad31	-0.0009893534
56	0xbaed815c	-0.0018120217
57	0x3c55a4f5	0.013039817
58	0x3a2d0d98	0.0006601452
59	0x3a609a15	0.0008567882
60	0x3bfa2335	0.0076335915
61	0x3c1ace6c	0.009448629
62	0x3cec779d	0.02886563
63	0x3c414551	0.0117963115
64	0x3c1a54a8	0.009419598
65	0xbb6a66b2	-0.0035766778
66	0xbb9a6e51	-0.004712858
67	0x3c0299e6	0.007971263
68	0xbb2fe9a0	-0.0026842132
69	0xbb041680	-0.0020155013
70	0xba759bf8	-0.00093692495
71	0xbb40b2d6	-0.002940347
72	0x3bce4704	0.006295087
73	0xbac03c5f	-0.001466643
74	0xb8bd483b	-9.025676e-05
75	0xbaba7e16	-0.001422825
76	0xbb96f49c	-0.0046067964
77	0x3c868706	0.016421806
78	0xbb8d373b	-0.0043095625
79	0xbaae67e0	-0.0013306104
80	0xb9fac906	-0.0004783349
81	0xbb3cdc92	-0.0028817994
82	0x3cc769ed	0.024342502
83	0xbb3ac933	-0.0028501272
84	0xbac3502b	-0.0014901211
85	0x3cadf26d	0.021233762
86	0x3cbc2f2d	0.022971714
87	0x3d8196f0	0.06327617
88	0x3cce6b55	0.025197664
89	0x3ca79c5c	0.0204603
90	0xbb22d66b	-0.0024847041
91	0xbb96aa32	-0.0045979256
92	0x3cbb908d	0.022896076
93	0xbbc19a46	-0.0059082834
94	0xbb838410	-0.004013546
95	0x3b7110e9	0.003678376
96	0xbb1afb90	-0.0023648478
97	0x3cb6fb32	0.022336576
98	0x3a31cbde	0.0006782393
99	0x3aa5ce77	0.0012650032
100	0x80008af3	-4.9846e-41
101	0x80008b70	-5.0021e-41
102	0x80008dad	-5.0824e-41
103	0x000089b8	4.9404e-41
104	0x00008e71	5.1098e-41
105	0x00008908	4.9158e-41
106	0x0000996d	5.5039e-41
107	0x80008a38	-4.9584e-41
108	0x800088fd	-4.9142e-41
109	0x00008ee6	5.1262e-41
110	0x80008963	-4.9285e-41
111	0x80009f53	-5.7155e-41
112	0x000089fa	4.9497e-41
113	0x80008989	-4.9338e-41
114	0x8000aef2	-6.2759e-41
115	0x000089fc	4.95e-41
116	0x80008931	-4.9215e-41
117	0x000089ad	4.9389e-41
118	0x80008936	-4.9222e-41
119	0x00008a4f	4.9616e-41
120	0x800095a2	-5.3678e-41
121	0x000095e9	5.3778e-41
122	0x80008951	-4.926e-41
123	0x8000899e	-4.9368e-41
124	0x00009abf	5.5512e-41
125	0xbc423590	-0.011853591
126	0xbc8be5b5	-0.017077306
127	0x3b9d5d50	0.0048023835
128	0xbc3afd7d	-0.011412975
129	0xbc0886a2	-0.00833288
130	0xbc83683c	-0.016040914
131	0xbc908db9	-0.017645704
132	0x3c24c5b9	0.010056906
133	0xbc8c4aed	-0.017125571
134	0xbc3dc101	-0.01158166
135	0x3be8434b	0.0070881
136	0x3bde9c67	0.006793547
137	0x3d37aa06	0.04483988
138	0x3c280c61	0.010256858
139	0x3bb61925	0.0055571967
140	0xbc300957	-0.010744414
141	0xbc6902af	-0.014221831
142	0x3bee0007	0.007263187
143	0xbc335b5c	-0.010947075
144	0xbc519b64	-0.012793396
145	0xbbb5b5bc	-0.005545346
146	0xbbc0b93e	-0.0058814576
147	0x3c1e3214	0.009655494
148	0xbc02a73c	-0.007974442
149	0xbb5898f6	-0.0033050156
150	0xbbec9d68	-0.0072209127
151	0xbc5de097	-0.013542316
152	0xbc90fd91	-0.017699035
153	0xbc6bdc07	-0.01439572
154	0xbc2fa952	-0.010721521
155	0xbc8189ac	-0.015812717
156	0xbcbd3809	-0.023098009
157	0xbce0c45f	-0.027437387
158	0xbcca603e	-0.024704095
159	0xbca7953a	-0.020456899
160	0xbcc636ec	-0.02419611
161	0xbcf88c91	-0.030340465
162	0xbd059ca7	-0.0326201
163	0xbd052e12	-0.03251464
164	0xbcf33918	-0.02969031
165	0xbc5b035b	-0.013367499
166	0xbcdeb6e0	-0.027186811
167	0xbd252bb4	-0.04032488
168	0xbcf34196	-0.02969436
169	0xbc9e6552	-0.019335423
170	0xbb123fee	-0.0022315937
171	0xbca224bc	-0.019792907
172	0xbd1d81e9	-0.03845397
173	0xbcb5c797	-0.022189898
174	0xbc087162	-0.008327814
175	0x3aa35b1f	0.0012463069
176	0xba477f33	-0.0007610202
177	0x3c4aed70	0.012385711
178	0xbb55004f	-0.0032501405
179	0xbb041ccc	-0.0020158766
180	0xbafc1477	-0.0019232173
181	0xba6d486a	-0.0009051623
182	0x3c7c2651	0.015389995
183	0xbbbad0a5	-0.005701142
184	0xbb8296e3	-0.0039852723
185	0x3c3afb78	0.011412494
186	0x3c7c4b2e	0.015398784
187	0x3d1ac0a2	0.037781365
188	0x3c2fb0a3	0.010723266
189	0x3c0c9c12	0.008582132
190	0xbb20a758	-0.0024513807
191	0xbb1dfafe	-0.0024105902
192	0x3c39a2db	0.011330332
193	0xbbafec3d	-0.005368738
194	0xbb914353	-0.0044330745
195	0xba9018ac	-0.0010993681
196	0xbb20cd8a	-0.0024536573
197	0x3bd9477c	0.006630836
198	0xbbabe8d9	-0.0052462635
199	0xbacbb2e4	-0.0015540984
200	0xbc08fe1e	-0.0083613675
201	0x38c0a06a	9.185153e-05
202	0x3ca3b73d	0.019984836
203	0xbb6e4816	-0.0036358885
204	0xbc47e061	-0.012199492
205	0xb9648f7e	-0.0002179723
206	0x3c5b68fb	0.0133917285
207	0x3d283f8b	0.041076224
208	0x3c09398c	0.008375537
209	0xbbc55434	-0.0060220007
210	0x3d11da30	0.03560847
211	0x3d67a319	0.056552026
212	0x3dc203e7	0.094734006
213	0x3d4eb3b5	0.05046435
214	0x3ce714f9	0.028208243
215	0x3cf0a29a	0.02937441
216	0x3d4043ae	0.046939544
217	0x3da3164c	0.07963237
218	0x3d2505d3	0.040288758
219	0x3caec876	0.021335822
220	0x3ca81203	0.020516401
221	0x3d176873	0.036964845
222	0x3d876d1a	0.06612606
223	0x3cf891d2	0.03034297
224	0x3c4fb115	0.012676497
225	0xbbd2e71a	-0.006436241
226	0xbc2d23c4	-0.010567609
227	0x3c15cf21	0.009143622
228	0xbc182490	-0.009286061
229	0xbc031907	-0.008001572
230	0xbbd4fd89	-0.0064999503
231	0xbc2a6af2	-0.010401474
232	0x3c5acf1c	0.013355043
233	0xbbfb0c26	-0.0076613603
234	0xbc0e0fb6	-0.008670738
235	0x3c7545b5	0.014970233
236	0x3c907f34	0.01763878
237	0x3d5b7a20	0.053583264
238	0x3c9c60da	0.019089151
239	0x3c63c9c7	0.013903088
240	0xbb908d13	-0.0044113486
241	0xbbd98119	-0.006637704
242	0x3c949ca3	0.018141096
243	0xbb6276ce	-0.0034555676
244	0xbaf2b4b3	-0.0018516987
245	0xba8546d4	-0.0010168203
246	0xbae77194	-0.001765775
247	0x3c7e738d	0.015530479
248	0xbb2d2842	-0.00264217
249	0x3a87dc55	0.0010365347
250	0x000089a0	4.937e-41
251	0x000089b5	4.94e-41
252	0x00008936	4.9222e-41
253	0x000089cd	4.9434e-41
254	0x80008a0b	-4.952e-41
255	0x0000898e	4.9345e-41

conv3.bias f4 [2]
0	0x3df99460	0.121865034
1	0x3e0b3e9c	0.13598102

exp_avg f4 [64, 2, 9, 9]
0	0xb386fea5	-6.286181e-08
1	0xb393fc72	-6.8911405e-08
2	0xb3a106b0	-7.498363e-08
3	0xb3a7ecb0	-7.819597e-08
4	0xb3a7642b	-7.794764e-08
5	0xb3a2ff5b	-7.590162e-08
6	0xb38ad032	-6.463996e-08
7	0xb3812bce	-6.0149986e-08
8	0xb363e867	-5.3063925e-08
9	0xb36db1d2	-5.534259e-08
10	0xb3846fcc	-6.167065e-08
11	0xb391d391	-6.7905724e-08
12	0xb3976120	-7.0491524e-08
13	0xb392ec33	-6.841619e-08
14	0xb3917f63	-6.77526e-08
15	0xb37570ac	-5.7145982e-08
16	0xb36186d6	-5.2509527e-08
17	0xb342a0c5	-4.5315364e-08
18	0xb34d0db0	-4.774273e-08
19	0xb36975f8	-5.4356832e-08
20	0xb3823756	-6.063662e-08
21	0xb386cb73	-6.2768684e-08
22	0xb380cb59	-5.997453e-08
23	0xb3809724	-5.987957e-08
24	0xb35464cc	-4.945177e-08
25	0xb3409467	-4.4838455e-08
26	0xb3213137	-3.7530494e-08
27	0xb32a81f8	-3.9699415e-08
28	0xb3475d78	-4.6418307e-08
29	0xb3627e88	-5.2734805e-08
30	0xb36a3bab	-5.453664e-08
31	0xb35b6f48	-5.109112e-08
32	0xb35d92a0	-5.1588927e-08
33	0xb33246ba	-4.150818e-08
34	0xb31e128a	-3.6804103e-08
35	0xb2fcea2e	-2.9443154e-08
36	0xb30bf4c6	-3.258608e-08
37	0xb32933a6	-3.9395353e-08
38	0xb3441e47	-4.5662343e-08
39	0xb34abeb7	-4.7205244e-08
40	0xb339690c	-4.316921e-08
41	0xb33f0772	-4.4477424e-08
42	0xb314af4b	-3.4618363e-08
43	0xb3011c43	-3.0060857e-08
44	0xb2c190c1	-2.2533984e-08
45	0xb31e81d6	-3.6905327e-08
46	0xb33b6cae	-4.3638174e-08
47	0xb353ec4e	-4.9342184e-08
48	0xb3565bdf	-4.9909314e-08
49	0xb33def91	-4.4222876e-08
50	0xb349fadc	-4.7027115e-08
51	0xb3242978	-3.822194e-08
52	0xb312a527	-3.414348e-08
53	0xb2e3ca43	-2.6518256e-08
54	0xb33a8c4b	-4.3434095e-08
55	0xb3585578	-5.0369152e-08
56	0xb370ba74	-5.6048933e-08
57	0xb37201e8	-5.634675e-08
58	0xb35670c3	-4.9928314e-08
59	0xb3658cf0	-5.34464e-08
60	0xb3419766	-4.507401e-08
61	0xb3302ee6	-4.1020847e-08
62	0xb30deed0	-3.304632e-08
63	0xb36bf492	-5.4937637e-08
64	0xb3856b6f	-6.212837e-08
65	0xb391e9bd	-6.7946054e-08
66	0xb392a662	-6.82892e-08
67	0xb38488c3	-6.171606e-08
68	0xb38c973a	-6.546766e-08
69	0xb37566ae	-5.7136894e-08
70	0xb363b916	-5.302089e-08
71	0xb34136d6	-4.4986187e-08
72	0xb365beed	-5.3491863e-08
73	0xb38171d7	-6.027738e-08
74	0xb38cfbee	-6.565084e-08
75	0xb38dbb79	-6.599925e-08
76	0xb37f7c3c	-5.9484805e-08
77	0xb387ee59	-6.3297826e-08
78	0xb36cae73	-5.5106693e-08
79	0xb35d400e	-5.151383e-08
80	0xb33d4596	-4.406828e-08
81	0xb2ac0706	-2.002663e-08
82	0xb2eb3ff1	-2.7386678e-08
83	0xb31208fc	-3.4001445e-08
84	0xb3200b05	-3.7262925e-08
85	0xb3188b35	-3.5516866e-08
86	0xb31d0348	-3.6557395e-08
87	0xb2dd1812	-2.5738732e-08
88	0xb2b85c74	-2.1462462e-08
89	0xb27021ce	-1.3977525e-08
90	0xb2891e40	-1.5962655e-08
91	0xb2c8d9d9	-2.338213e-08
92	0xb30151e1	-3.010962e-08
93	0xb30ee8cc	-3.327368e-08
94	0xb303731b	-3.0605502e-08
95	0xb30c4600	-3.2659955e-08
96	0xb2bee47d	-2.2222816e-08
97	0xb29b046c	-1.8046386e-08
98	0xb237a99b	-1.0690566e-08
99	0xb26ef300	-1.3908675e-08
100	0xb2b6c624	-2.1277692e-08
101	0xb2f0a2bf	-2.8013686e-08
102	0xb306fcd0	-3.1429238e-08
103	0xb2f8defc	-2.8972401e-08
104	0xb30506f8	-3.0972814e-08
105	0xb2b05b4a	-2.053061e-08
106	0xb28cd5a9	-1.6395306e-08
107	0xb21dfb91	-9.195802e-09
108	0xb25e174e	-1.29274e-08
109	0xb2ad3429	-2.016357e-08
110	0xb2e5be4c	-2.6745646e-08
111	0xb3021b40	-3.0292767e-08
112	0xb2f1b021	-2.8136187e-08
113	0xb3010d07	-3.0047e-08
114	0xb2a7826f	-1.9500673e-08
115	0xb2863851	-1.5625263e-08
116	0xb213043e	-8.557491e-09
117	0xb267a596	-1.34836196e-08
118	0xb2afe4ae	-2.0476673e-08
119	0xb2e5a2ca	-2.6733137e-08
120	0xb3031b54	-3.052567e-08
121	0xb2f5682c	-2.8569126e-08
122	0xb301e595	-3.0243957e-08
123	0xb2a9441c	-1.9705162e-08
124	0xb2891a6e	-1.5960918e-08
125	0xb21f86cb	-9.2856665e-09
126	0xb2bba5cb	-2.1845059e-08
127	0xb2f3fec3	-2.8404775e-08
128	0xb310a1ca	-3.367476e-08
129	0xb31bdfc0	-3.629225e-08
130	0xb30e78a5	-3.3171677e-08
131	0xb3181aa8	-3.54145e-08
132	0xb2dcc8bb	-2.5702652e-08
133	0xb2c41df3	-2.2831022e-08
134	0xb28d46ac	-1.6446698e-08
135	0xb305e066	-3.1170565e-08
136	0xb3216e7d	-3.7586222e-08
137	0xb3366b8b	-4.2472987e-08
138	0xb340a6bb	-4.4855124e-08
139	0xb332c8d7	-4.1626517e-08
140	0xb33acc5f	-4.3492374e-08
141	0xb310b0a9	-3.3688284e-08
142	0xb305292f	-3.1003932e-08
143	0xb2d3b691	-2.4646654e-08
144	0xb33b76c0	-4.3647333e-08
145	0xb3566491	-4.9917222e-08
146	0xb36aca6c	-5.4666472e-08
147	0xb3755295	-5.7118616e-08
148	0xb36a4530	-5.4545296e-08
149	0xb36f0e45	-5.5659502e-08
150	0xb3434655	-4.5465942e-08
151	0xb33799b7	-4.274781e-08
152	0xb31cbe7d	-3.649483e-08
153	0xb349154c	-4.681833e-08
154	0xb361a255	-5.2534535e-08
155	0xb373eb36	-5.679177e-08
156	0xb37f9c38	-5.9513894e-08
157	0xb37909e1	-5.7983815e-08
158	0xb379c481	-5.815355e-08
159	0xb34cdb50	-4.7696915e-08
160	0xb342acf6	-4.5326452e-08
161	0xb32a5297	-3.9656324e-08
162	0x00000000	0.0
163	0x00000000	0.0
164	0x80000000	-0.0
165	0x00000000	0.0
166	0x80000000	-0.0
167	0x80000000	-0.0
168	0x80000000	-0.0
169	0x80000000	-0.0
170	0x80000000	-0.0
171	0x80000000	-0.0
172	0x80000000	-0.0
173	0x00000000	0.0
174	0x00000000	0.0
175	0x00000000	0.0
176	0x00000000	0.0
177	0x00000000	0.0
178	0x00000000	0.0
179	0x00000000	0.0
180	0x80000000	-0.0
181	0x80000000	-0.0
182	0x00000000	0.0
183	0x80000000	-0.0
184	0x00000000	0.0
185	0x00000000	0.0
186	0x00000000	0.0
187	0x00000000	0.0
188	0x00000000	0.0
189	0x00000000	0.0
190	0x00000000	0.0
191	0x80000000	-0.0
192	0x80000000	-0.0
193	0x00000000	0.0
194	0x00000000	0.0
195	0x00000000	0.0
196	0x00000000	0.0
197	0x00000000	0.0
198	0x00000000	0.0
199	0x80000000	-0.0
200	0x80000000	-0.0
201	0x80000000	-0.0
202	0x00000000	0.0
203	0x00000000	0.0
204	0x00000000	0.0
205	0x00000000	0.0
206	0x00000000	0.0
207	0x00000000	0.0
208	0x00000000	0.0
209	0x00000000	0.0
210	0x00000000	0.0
211	0x80000000	-0.0
212	0x80000000	-0.0
213	0x80000000	-0.0
214	0x80000000	-0.0
215	0x80000000	-0.0
216	0x80000000	-0.0
217	0x80000000	-0.0
218	0x80000000	-0.0
219	0x00000000	0.0
220	0x00000000	0.0
221	0x80000000	-0.0
222	0x80000000	-0.0
223	0x00000000	0.0
224	0x00000000	0.0
225	0x00000000	0.0
226	0x00000000	0.0
227	0x80000000	-0.0
228	0x80000000	-0.0
229	0x00000000	0.0
230	0x00000000	0.0
231	0x00000000	0.0
232	0x00000000	0.0
233	0x00000000	0.0
234	0x80000000	-0.0
235	0x00000000	0.0
236	0x00000000	0.0
237	0x00000000	0.0
238	0x80000000	-0.0
239	0x80000000	-0.0
240	0x80000000	-0.0
241	0x80000000	-0.0
242	0x80000000	-0.0
243	0x00000000	0.0
244	0x80000000	-0.0
245	0x80000000	-0.0
246	0x80000000	-0.0
247	0x80000000	-0.0
248	0x80000000	-0.0
249	0x80000000	-0.0
250	0x80000000	-0.0
251	0x80000000	-0.0
252	0x80000000	-0.0
253	0x80000000	-0.0
254	0x00000000	0.0
255	0x00000000	0.0

exp_avg_sq f4 [64, 2, 9, 9]
0	0x2b4cae19	7.271697e-13
1	0x2b557f64	7.584959e-13
2	0x2b61c829	8.0213836e-13
3	0x2b73f96e	8.6677096e-13
4	0x2b852597	9.460652e-13
5	0x2b72c750	8.625227e-13
6	0x2b5fb681	7.947879e-13
7	0x2b52b315	7.4855513e-13
8	0x2b49a99e	7.1644936e-13
9	0x2b50bb89	7.41567e-13
10	0x2b59d125	7.7384133e-13
11	0x2b6670eb	8.186912e-13
12	0x2b78f7e3	8.845131e-13
13	0x2b87c3b4	9.646645e-13
14	0x2b77b5d3	8.800436e-13
15	0x2b643e44	8.1088283e-13
16	0x2b56eae6	7.635406e-13
17	0x2b4daaef	7.306785e-13
18	0x2b54617c	7.5452817e-13
19	0x2b5dacd9	7.8754847e-13
20	0x2b6a94d7	8.3340057e-13
21	0x2b7d7889	9.005093e-13
22	0x2b8a2e80	9.818396e-13
23	0x2b7c22c5	8.9576637e-13
24	0x2b685add	8.2549055e-13
25	0x2b5acfc3	7.7737486e-13
26	0x2b5166d9	7.4394446e-13
27	0x2b571e87	7.642571e-13
28	0x2b60897b	7.977158e-13
29	0x2b6d977e	8.440955e-13
30	0x2b80571f	9.119128e-13
31	0x2b8bdf98	9.938604e-13
32	0x2b7f3a6d	9.067528e-13
33	0x2b6b4918	8.359021e-13
34	0x2b5da3b2	7.8742145e-13
35	0x2b542989	7.537517e-13
36	0x2b589ece	7.6959e-13
37	0x2b620e62	8.031129e-13
38	0x2b6f1bbb	8.494834e-13
39	0x2b811685	9.172252e-13
40	0x2b8c9bb1	9.990811e-13
41	0x2b804c74	9.116167e-13
42	0x2b6ca3f0	8.407155e-13
43	0x2b5f03b4	7.9230654e-13
44	0x2b558dbe	7.586951e-13
45	0x2b00cb08	4.57565e-13
46	0x2b06a6de	4.783794e-13
47	0x2b0f1f80	5.084752e-13
48	0x2b1c5a7c	5.5547906e-13
49	0x2b2c44e9	6.120231e-13
50	0x2b1adc11	5.5017194e-13
51	0x2b0cb65a	4.9991055e-13
52	0x2b03c3b0	4.681212e-13
53	0x2afc01c8	4.4765428e-13
54	0x2a847546	2.3529285e-13
55	0x2a8b3fef	2.4735723e-13
56	0x2a95ee5a	2.6633107e-13
57	0x2aa7a267	2.9777848e-13
58	0x2abc1f49	3.3417217e-13
59	0x2aa56959	2.9382987e-13
60	0x2a924716	2.5984136e-13
61	0x2a86d2c2	2.3949424e-13
62	0x2a804ccc	2.2790656e-13
63	0x29f1b4eb	1.0733934e-13
64	0x2a00917b	1.1419157e-13
65	0x2a0e096f	1.2615406e-13
66	0x2a250c5e	1.4659235e-13
67	0x2a3d4e56	1.681375e-13
68	0x2a2295a7	1.4440411e-13
69	0x2a0a0301	1.2257904e-13
70	0x29f68b6a	1.0948779e-13
71	0x29e7e14e	1.0297545e-13
72	0x2999d745	6.831908e-14
73	0x29a4ce8d	7.318894e-14
74	0x29b8889e	8.194941e-14
75	0x29db0bbd	9.72759e-14
76	0x29fe0d8a	1.12822146e-13
77	0x29d8cdbb	9.6280155e-14
78	0x29b58c63	8.062368e-14
79	0x299fa3d6	7.0894394e-14
80	0x299526df	6.623672e-14
81	0x2b705220	8.53791e-13
82	0x2b7a64ff	8.8958e-13
83	0x2b8405d0	9.380777e-13
84	0x2b8e3ce1	1.0106604e-12
85	0x2b9afe19	1.1012884e-12
86	0x2b8d613e	1.0045643e-12
87	0x2b829638	9.27875e-13
88	0x2b769212	8.759947e-13
89	0x2b6c41a3	8.393513e-13
90	0x2b702d10	8.5327665e-13
91	0x2b7a1f46	8.886124e-13
92	0x2b83c3db	9.362471e-13
93	0x2b8dbaa7	1.0070459e-12
94	0x2b9a30d1	1.0955907e-12
95	0x2b8cd7dc	1.0007511e-12
96	0x2b8229fa	9.248706e-13
97	0x2b75e434	8.735818e-13
98	0x2b6ba62c	8.371938e-13
99	0x2b6fa923	8.514458e-13
100	0x2b79788a	8.862985e-13
101	0x2b834a8b	9.3288e-13
102	0x2b8d0b60	1.002181e-12
103	0x2b994c46	1.0892474e-12
104	0x2b8c1e1c	9.955955e-13
105	0x2b819851	9.208278e-13
106	0x2b74ff7f	8.7040786e-13
107	0x2b6ada44	8.3436404e-13
108	0x2b6e6499	8.4694193e-13
109	0x2b7805a2	8.8115116e-13
110	0x2b8266a1	9.265541e-13
111	0x2b8beb2c	9.941817e-13
112	0x2b97f150	1.0796173e-12
113	0x2b8af45a	9.873311e-13
114	0x2b80a1f4	9.139898e-13
115	0x2b73626f	8.6467546e-13
116	0x2b696686	8.292051e-13
117	0x2b6bfc78	8.383914e-13
118	0x2b756ab3	8.718956e-13
119	0x2b80e6d5	9.159016e-13
120	0x2b8a29b6	9.817067e-13
121	0x2b95f098	1.0653865e-12
122	0x2b892cca	9.746867e-13
123	0x2b7e277e	9.0293734e-13
124	0x2b70a926	8.549987e-13
125	0x2b66e4ad	8.2029766e-13
126	0x2b081915	4.8351714e-13
127	0x2b0d8725	5.0280814e-13
128	0x2b14e013	5.289113e-13
129	0x2b20f4bc	5.7183056e-13
130	0x2b30b6ed	6.278162e-13
131	0x2b1f20a9	5.653347e-13
132	0x2b11819d	5.1694223e-13
133	0x2b094dc0	4.8780077e-13
134	0x2b03b5a6	4.6792637e-13
135	0x2a7df442	2.2555658e-13
136	0x2a8451a8	2.350457e-13
137	0x2a8c6310	2.4937734e-13
138	0x2a9b98c7	2.7639542e-13
139	0x2aafcbe2	3.1227717e-13
140	0x2a98daef	2.715254e-13
141	0x2a876642	2.4051773e-13
142	0x2a7c462f	2.2406446e-13
143	0x2a716079	2.143857e-13
144	0x29ad6189	7.699663e-14
145	0x29b5c1b7	8.071619e-14
146	0x29c5fd40	8.792489e-14
147	0x29eaec0b	1.04326344e-13
148	0x2a0db780	1.258698e-13
149	0x29e4e78b	1.01654e-13
150	0x29bb4f96	8.318274e-14
151	0x29a7b3f0	7.447504e-14
152	0x299f1897	7.065284e-14
153	0x2929a2f6	3.7666884e-14
154	0x2932db73	3.971428e-14
155	0x2947c40e	4.4356927e-14
156	0x297d3388	5.622198e-14
157	0x29a1b759	7.181642e-14
158	0x297915e8	5.5308107e-14
159	0x29414500	4.2914457e-14
160	0x292713c9	3.709861e-14
161	0x291d60b2	3.4944873e-14
162	0x20b0dc3e	2.9961304e-19
163	0x20d42566	3.5938945e-19
164	0x2106fffd	4.5739764e-19
165	0x2127cbcf	5.685154e-19
166	0x2145075e	6.6755947e-19
167	0x214520ba	6.678951e-19
168	0x21452b74	6.6803706e-19
169	0x21451e21	6.678607e-19
170	0x21451245	6.6770376e-19
171	0x20bf1a9c	3.2374267e-19
172	0x20e63498	3.899832e-19
173	0x21121979	4.9500437e-19
174	0x2134dc63	6.127805e-19
175	0x2153a3bb	7.1706276e-19
176	0x2153b174	7.172444e-19
177	0x2153a31f	7.170547e-19
178	0x21539ae8	7.16946e-19
179	0x21536ce6	7.1633707e-19
180	0x20e95540	3.952815e-19
181	0x210f1ad7	4.8485807e-19
182	0x21357e73	6.149254e-19
183	0x215ea5dc	7.543604e-19
184	0x2181120a	8.746155e-19
185	0x218116d4	8.747423e-19
186	0x21811313	8.746429e-19
187	0x2180fb97	8.740213e-19
188	0x2180c442	8.725566e-19
189	0x21143fb6	5.022867e-19
190	0x2135c79b	6.158936e-19
191	0x2163a4b6	7.7128585e-19
192	0x2189a350	9.32671e-19
193	0x219db6cb	1.0687119e-18
194	0x219dc3ba	1.0690542e-18
195	0x219daee4	1.0685027e-18
196	0x219d82c7	1.067335e-18
197	0x219d264c	1.0648871e-18
198	0x213bfc01	6.369159e-19
199	0x2163aa8b	7.7136303e-19
200	0x218c08f9	9.489144e-19
201	0x21a6a514	1.1292293e-18
202	0x21bcdf68	1.2798511e-18
203	0x21bce7e0	1.2800752e-18
204	0x21bccbb1	1.2793292e-18
205	0x21bc9748	1.2779419e-18
206	0x21bc1097	1.2743767e-18
207	0x2130a3e7	5.984804e-19
208	0x215647e2	7.2601156e-19
209	0x21843a8c	8.960165e-19
210	0x219dbfef	1.0689538e-18
211	0x21b30d45	1.2133024e-18
212	0x21b31387	1.2134681e-18
213	0x21b2f578	1.2126724e-18
214	0x21b2bac8	1.211119e-18
215	0x21b21444	1.2067113e-18
216	0x21226ce0	5.503183e-19
217	0x214494c0	6.660425e-19
218	0x2172dcf6	8.228523e-19
219	0x219145f4	9.844099e-19
220	0x21a53bff	1.1196716e-18
221	0x21a53e4a	1.1197323e-18
222	0x21a51bab	1.1188159e-18
223	0x21a4ddd5	1.1171791e-18
224	0x21a43c78	1.1129078e-18
225	0x2117c53b	5.142182e-19
226	0x2137c5d7	6.226465e-19
227	0x21638383	7.7084646e-19
228	0x218878d2	9.247699e-19
229	0x219b8bde	1.0540231e-18
230	0x219b9ae4	1.0544208e-18
231	0x219b7fc3	1.0537027e-18
232	0x219b477f	1.0522133e-18
233	0x219ab36e	1.0482941e-18
234	0x21120300	4.9470695e-19
235	0x2130b7fe	5.987463e-19
236	0x215ae729	7.416721e-19
237	0x218367fc	8.90443e-19
238	0x2195ec6b	1.0159212e-18
239	0x2195f02c	1.0160206e-18
240	0x2195daf2	1.0154587e-18
241	0x2195b088	1.014336e-18
242	0x21952919	1.0107511e-18
243	0x20df85a2	3.78661e-19
244	0x21060373	4.540553e-19
245	0x21280576	5.692784e-19
246	0x214d638c	6.958845e-19
247	0x216df312	8.0620424e-19
248	0x216dec80	8.061173e-19
249	0x216d96be	8.049823e-19
250	0x216d1618	8.0327964e-19
251	0x216c6219	8.008974e-19
252	0x20f28048	4.1081284e-19
253	0x2111b680	4.936945e-19
254	0x21361fe8	6.1706226e-19
255	0x215db7d7	7.512102e-19

exp_avg f4 [64]
0	0xb417e6d9	-1.4146953e-07
1	0x80000000	-0.0
2	0x34e7def4	4.3189323e-07
3	0x3509bd13	5.1311616e-07
4	0x36534c14	3.1485733e-06
5	0x3593be20	1.1007687e-06
6	0x341eb158	1.4779414e-07
7	0x35a13ff4	1.2014048e-06
8	0xb36d015e	-5.5182106e-08
9	0x361067ef	2.151817e-06
10	0x35d9bac4	1.6222116e-06
11	0x35a864a5	1.2546267e-06
12	0x00000000	0.0
13	0x00000000	0.0
14	0x80000000	-0.0
15	0x3589c86d	1.0265627e-06
16	0x359be620	1.1615375e-06
17	0x35a8fb2a	1.2590074e-06
18	0x362026d8	2.3864468e-06
19	0x35d1a954	1.5620994e-06
20	0x361e02c8	2.3545454e-06
21	0x34331cb9	1.6681123e-07
22	0x80000000	-0.0
23	0x34ef1729	4.453407e-07
24	0x00000000	0.0
25	0x00000000	0.0
26	0x3611de79	2.173618e-06
27	0x36244f82	2.4484184e-06
28	0xb4498f3b	-1.877169e-07
29	0x352d2a97	6.45095e-07
30	0xb49d6b51	-2.9321612e-07
31	0x3619b20e	2.2902418e-06
32	0x3504e091	4.950062e-07
33	0x3580b628	9.589758e-07
34	0x34a9ec13	3.165047e-07
35	0x34ffd7c5	4.7654444e-07
36	0x353b135a	6.969109e-07
37	0x35c51fc3	1.4686888e-06
38	0xb4626c97	-2.1087395e-07
39	0x359464f5	1.1056242e-06
40	0x3318cd75	3.557712e-08
41	0x35f3100c	1.8109581e-06
42	0x35301b6b	6.560501e-07
43	0xb3689c10	-5.4158647e-08
44	0xb3375bb4	-4.269141e-08
45	0xb3a4e9b0	-7.6793526e-08
46	0xb32a8d73	-3.9709857e-08
47	0x35fa3bd7	1.8643867e-06
48	0x3644e4e8	2.9339517e-06
49	0x00000000	0.0
50	0x80000000	-0.0
51	0x3586032a	9.984699e-07
52	0xb4f244b6	-4.5126006e-07
53	0x357ec33c	9.4906477e-07
54	0x357abe8d	9.3409545e-07
55	0x34d10939	3.8935994e-07
56	0x33c28135	9.0573316e-08
57	0x368514a2	3.966111e-06
58	0x00000000	0.0
59	0x3575d393	9.1577493e-07
60	0x342b24cb	1.5939001e-07
61	0x00000000	0.0
62	0xb3ddaa7c	-1.03221254e-07
63	0x356f2357	8.9085864e-07

exp_avg_sq f4 [64]
0	0x2c82eb5f	3.7209537e-12
1	0x22c84af5	5.4289472e-18
2	0x2ce0f0de	6.3932045e-12
3	0x2e9c3154	7.102821e-11
4	0x2e5539ed	4.848204e-11
5	0x2e1579d4	3.3986883e-11
6	0x2cc9b352	5.732672e-12
7	0x2f8e8b76	2.5928742e-10
8	0x2c0f06c5	2.032528e-12
9	0x2f0b2996	1.265675e-10
10	0x2da84fb1	1.9134779e-11
11	0x2f026469	1.1859104e-10
12	0x192cc8fb	8.932779e-24
13	0x1c94e2dc	9.85246e-22
14	0x2062280a	1.9156192e-19
15	0x2f0f9bf9	1.3061187e-10
16	0x2eae877a	7.9366694e-11
17	0x2faf42da	3.1879815e-10
18	0x2f1ba4e8	1.4155754e-10
19	0x2ece606c	9.3849234e-11
20	0x2e98b50c	6.94432e-11
21	0x2cdaaaa4	6.2148776e-12
22	0x149b3915	1.5673515e-26
23	0x2c2b8223	2.4372802e-12
24	0x1e81683a	1.3701513e-20
25	0x1580caa1	5.201848e-26
26	0x2e1051b2	3.281437e-11
27	0x2ef19aaa	1.0986885e-10
28	0x2d33b8ab	1.02159765e-11
29	0x2d9fd322	1.8169969e-11
30	0x2dc5f90a	2.2506903e-11
31	0x2f8d06f1	2.5652683e-10
32	0x2cf36f08	6.9188023e-12
33	0x2e44ead0	4.4773796e-11
34	0x2e3c05ac	4.275129e-11
35	0x2e7badc5	5.722513e-11
36	0x2ef5372b	1.115111e-10
37	0x2eb06d7f	8.023004e-11
38	0x2dfa46f8	2.8453226e-11
39	0x2e91a577	6.623229e-11
40	0x2dfe3b56	2.8902807e-11
41	0x2e53668b	4.8066922e-11
42	0x2e0ffa7b	3.2736907e-11
43	0x2dbb5980	2.1299185e-11
44	0x2e626cfb	5.1483245e-11
45	0x2e6271a8	5.1487398e-11
46	0x2e5ddfd7	5.0448392e-11
47	0x2dc07ec3	2.1884166e-11
48	0x2f91fa31	2.6553118e-10
49	0x19fcf986	2.6156971e-23
50	0x1d01327d	1.709911e-21
51	0x2edfb19c	1.0172416e-10
52	0x2ea7b8a0	7.627077e-11
53	0x2f07106c	1.2284013e-10
54	0x2e475cdb	4.5329834e-11
55	0x2e332b21	4.0738194e-11
56	0x2c493047	2.8590617e-12
57	0x2f371da2	1.6654281e-10
58	0x1e2cfd08	9.15793e-21
59	0x2f2ece00	1.5898394e-10
60	0x2dc9274c	2.2868506e-11
61	0x1d51b457	2.7754153e-21
62	0x2e073ba7	3.0748428e-11
63	0x2d564a0a	1.2180932e-11

exp_avg f4 [32, 64, 1, 1]
0	0x3333b3b8	4.184014e-08
1	0x00000000	0.0
2	0x34cf6710	3.8631742e-07
3	0x34498f6f	1.8771765e-07
4	0x34301a3b	1.640082e-07
5	0x3534ff81	6.742703e-07
6	0x3331d084	4.1400668e-08
7	0x34567d37	1.9975856e-07
8	0x3427095e	1.5556495e-07
9	0x35b09c56	1.3158522e-06
10	0x33cdd88f	9.585448e-08
11	0x35b86150	1.373739e-06
12	0x80000000	-0.0
13	0x80000000	-0.0
14	0x00000000	0.0
15	0x35ada240	1.2936725e-06
16	0x35ae51f5	1.2987863e-06
17	0x346c8d53	2.2030626e-07
18	0x35c4528d	1.4627163e-06
19	0x3614f3d0	2.2195636e-06
20	0x343cae88	1.7572359e-07
21	0x35276ef2	6.2373795e-07
22	0x00000000	0.0
23	0x346282b6	2.1095443e-07
24	0x00000000	0.0
25	0x80000000	-0.0
26	0x3598479e	1.1345726e-06
27	0x35a65e3d	1.2395391e-06
28	0x3394211f	6.897812e-08
29	0x3454c9e6	1.9817489e-07
30	0x3414db0f	1.3863267e-07
31	0x3621ddb8	2.4119927e-06
32	0x34a47b58	3.0637125e-07
33	0x35a58507	1.2332174e-06
34	0x34d17dbd	3.902077e-07
35	0x35f08b59	1.7921949e-06
36	0x35924b86	1.0899828e-06
37	0x358976eb	1.0241905e-06
38	0x3424803c	1.5320342e-07
39	0x35cd84e7	1.531237e-06
40	0x34a1074f	2.9993905e-07
41	0x35755f76	9.1408526e-07
42	0x35e43110	1.7001603e-06
43	0x34859216	2.4879472e-07
44	0x35cb7507	1.5158738e-06
45	0x358d16ba	1.0511933e-06
46	0x34e00d05	4.1732724e-07
47	0x33e89d61	1.0831969e-07
48	0x35c612c6	1.4757613e-06
49	0x80000000	-0.0
50	0x00000000	0.0
51	0x361682ed	2.242795e-06
52	0x34f7439b	4.6056525e-07
53	0x3693ec64	4.408461e-06
54	0x35bb2ba9	1.3945292e-06
55	0x3517228e	5.630217e-07
56	0x3432a5a0	1.6637796e-07
57	0x348c2827	2.6106247e-07
58	0x80000000	-0.0
59	0x3431dbb9	1.6564344e-07
60	0xb2e3a48a	-2.6501102e-08
61	0x00000000	0.0
62	0x350ab6b6	5.1674886e-07
63	0x34f6b675	4.5953826e-07
64	0xb188b379	-3.9785246e-09
65	0x80000000	-0.0
66	0x3433df1e	1.6751844e-07
67	0x31a7f5f8	4.888303e-09
68	0x33cad06a	9.444268e-08
69	0x34345cfb	1.6797632e-07
70	0xaf867cf0	-2.4463231e-10
71	0x33bc4ad0	8.7680405e-08
72	0x3390758e	6.7269056e-08
73	0x35140083	5.513504e-07
74	0x32a4512a	1.9129022e-08
75	0x34de7e85	4.1442777e-07
76	0x80000000	-0.0
77	0x00000000	0.0
78	0x80000000	-0.0
79	0x3501a1d2	4.8291724e-07
80	0x34f34639	4.531337e-07
81	0x332c8aec	4.017322e-08
82	0x352e6641	6.496885e-07
83	0x3580db7b	9.60062e-07
84	0x33c98e8b	9.38572e-08
85	0x343845c4	1.7161716e-07
86	0x80000000	-0.0
87	0x33a70346	7.777139e-08
88	0x80000000	-0.0
89	0x80000000	-0.0
90	0x34f90374	4.6382377e-07
91	0x350baccb	5.203298e-07
92	0xb1efebf0	-6.9826385e-09
93	0x338f477c	6.671959e-08
94	0xb25098d4	-1.2141943e-08
95	0x3562fbb0	8.4557814e-07
96	0x33a1cc9c	7.534365e-08
97	0x34ec5876	4.402279e-07
98	0x354797a1	7.4353926e-07
99	0x34b21291	3.3168592e-07
100	0x348ae248	2.5869144e-07
101	0x34d765f1	4.0121043e-07
102	0xb22c3271	-1.0023187e-08
103	0x3500cf71	4.798558e-07
104	0x33c76612	9.285226e-08
105	0x34b6c412	3.4042802e-07
106	0x34f2a9e5	4.5199627e-07
107	0x33ab5868	7.978889e-08
108	0x34d4979a	3.9598382e-07
109	0x3501e262	4.8385675e-07
110	0x33d3e76c	9.8675486e-08
111	0x337344cb	5.6640413e-08
112	0x353b7fcd	6.9848903e-07
113	0x80000000	-0.0
114	0x80000000	-0.0
115	0x3578b475	9.26498e-07
116	0x3410adbd	1.347425e-07
117	0x35b697ac	1.3604199e-06
118	0x35060eec	4.9940604e-07
119	0x341feea4	1.4894846e-07
120	0x3391d37e	6.790559e-08
121	0x332ecf59	4.0701114e-08
122	0x80000000	-0.0
123	0xb2ca0136	-2.3516446e-08
124	0xb26b881f	-1.3709751e-08
125	0x80000000	-0.0
126	0x346a51a7	2.1822653e-07
127	0x3436be56	1.7019315e-07
128	0x328545f8	1.5515056e-08
129	0x80000000	-0.0
130	0x33ed5f64	1.1053524e-07
131	0x33419f0a	4.508096e-08
132	0x338ca860	6.549885e-08
133	0x3436de73	1.7030997e-07
134	0x3237d5b6	1.0700594e-08
135	0x342083e3	1.4949141e-07
136	0x333139f7	4.1263743e-08
137	0x34ca285a	3.7654792e-07
138	0x32eb0dd1	2.7363884e-08
139	0x34bd6844	3.5279857e-07
140	0x80000000	-0.0
141	0x80000000	-0.0
142	0x00000000	0.0
143	0x34a61585	3.0935567e-07
144	0x34ade845	3.239276e-07
145	0x340385d7	1.2249016e-07
146	0x34d9a913	4.0542417e-07
147	0x351179f4	5.4194174e-07
148	0x33ab6325	7.980842e-08
149	0x34273bc8	1.5574835e-07
150	0x80000000	-0.0
151	0x338040a7	5.972225e-08
152	0x00000000	0.0
153	0x80000000	-0.0
154	0x34b2cce4	3.330416e-07
155	0x34c04f5a	3.5820523e-07
156	0x32e5010a	2.6659581e-08
157	0x33930986	6.846953e-08
158	0x33512b97	4.870125e-08
159	0x351b7717	5.79153e-07
160	0x33a53a4d	7.694016e-08
161	0x349b0965	2.8877835e-07
162	0x34c3951b	3.643007e-07
163	0x348f8791	2.6734463e-07
164	0x34541abd	1.9753766e-07
165	0x34939cbb	2.749492e-07
166	0x3379c61b	5.8155006e-08
167	0x349966a8	2.8573163e-07
168	0x339b0cc1	7.22007e-08
169	0x348898a8	2.5443046e-07
170	0x34aedb22	3.2569466e-07
171	0x3380e0ba	6.001342e-08
172	0x349d5a49	2.930922e-07
173	0x34a36531	3.0434742e-07
174	0x33f633f0	1.1464715e-07
175	0x3331c01e	4.1385753e-08
176	0x34f9e0af	4.6543343e-07
177	0x00000000	0.0
178	0x00000000	0.0
179	0x350a6e84	5.156983e-07
180	0x33dbf90c	1.02432836e-07
181	0x3542d57d	7.25813e-07
182	0x34b474b7	3.3612534e-07
183	0x3414e445	1.3866618e-07
184	0x33366371	4.246562e-08
185	0x33a09d64	7.47921e-08
186	0x00000000	0.0
187	0x3324e716	3.8394397e-08
188	0x31a500f5	4.802241e-09
189	0x80000000	-0.0
190	0x340342e8	1.2224666e-07
191	0x3409ee40	1.2845794e-07
192	0x33b46311	8.399923e-08
193	0x00000000	0.0
194	0xb2781347	-1.4439883e-08
195	0x349048af	2.6874974e-07
196	0x323739ae	1.0665117e-08
197	0x32a0f6be	1.8738657e-08
198	0x339f9077	7.4302925e-08
199	0x34fc1262	4.6952033e-07
200	0xb099664a	-1.1161287e-09
201	0xb43b6cff	-1.7455385e-07
202	0x3367a117	5.393039e-08
203	0x31998189	4.4676125e-09
204	0x00000000	0.0
205	0x00000000	0.0
206	0x00000000	0.0
207	0xb298f661	-1.7807169e-08
208	0x349c318c	2.9093314e-07
209	0x3506da73	5.0236775e-07
210	0xb3a80597	-7.8241264e-08
211	0x34054f09	1.2415343e-07
212	0x33408cec	4.483165e-08
213	0x3440e576	1.7964871e-07
214	0x80000000	-0.0
215	0xb2b45894	-2.0995039e-08
216	0x00000000	0.0
217	0x00000000	0.0
218	0xb441e8d7	-1.8059232e-07
219	0xb42ac767	-1.5905026e-07
220	0x3417b01c	1.4127039e-07
221	0x340d5052	1.3160869e-07
222	0x3482f454	2.439216e-07
223	0x34badff3	3.4808144e-07
224	0x321cda1f	9.12999e-09
225	0x34515b7a	1.9497921e-07
226	0x3413ee18	1.377706e-07
227	0x34ccbec8	3.8136773e-07
228	0x34c2d4da	3.6290186e-07
229	0xb3283709	-3.9165602e-08
230	0x3491216c	2.7032672e-07
231	0x345d500e	2.0611353e-07
232	0x33afc984	8.185728e-08
233	0xb3c4c3ed	-9.1626e-08
234	0x34922d8d	2.7227762e-07
235	0x338932a7	6.388773e-08
236	0x34e043eb	4.1772668e-07
237	0x32c4f88d	2.293043e-08
238	0x33da735b	1.0172399e-07
239	0x3241d8a7	1.128334e-08
240	0xb4480be3	-1.8630776e-07
241	0x00000000	0.0
242	0x00000000	0.0
243	0x33aab100	7.948438e-08
244	0x33e3d766	1.0609692e-07
245	0xb3c0e695	-8.982639e-08
246	0x3461275d	2.0969078e-07
247	0x31e98e0f	6.7973427e-09
248	0x33858642	6.2177165e-08
249	0x343fac51	1.785095e-07
250	0x00000000	0.0
251	0x34d8d900	4.0391024e-07
252	0x340845f1	1.2691432e-07
253	0x80000000	-0.0
254	0x3445990c	1.8402733e-07
255	0xb34493c0	-4.5769184e-08
